…
2020-06-07 18:51:33.545367: I tensorflow/compiler/xla/service/service.cc:176]   StreamExecutor device (0): GeForce RTX 2080 Ti, Compute Capability 7.5
2020-06-07 18:51:33.545400: I tensorflow/compiler/xla/service/service.cc:176]   StreamExecutor device (1): GeForce RTX 2080 Ti, Compute Capability 7.5
682 634 682 682
Model: "model_1"
__________________________________________________________________________________________________
Layer (type)                    Output Shape         Param #     Connected to                     
==================================================================================================
input_1 (InputLayer)            (None, 512, 512, 1)  0                                            
__________________________________________________________________________________________________
conv2d_1 (Conv2D)               (None, 512, 512, 64) 640         input_1[0][0]                    
__________________________________________________________________________________________________
dropout_1 (Dropout)             (None, 512, 512, 64) 0           conv2d_1[0][0]                   
__________________________________________________________________________________________________
conv2d_2 (Conv2D)               (None, 512, 512, 64) 36928       dropout_1[0][0]                  
__________________________________________________________________________________________________
dropout_2 (Dropout)             (None, 512, 512, 64) 0           conv2d_2[0][0]                   
__________________________________________________________________________________________________
max_pooling2d_1 (MaxPooling2D)  (None, 256, 256, 64) 0           dropout_2[0][0]                  
__________________________________________________________________________________________________
conv2d_3 (Conv2D)               (None, 256, 256, 128 73856       max_pooling2d_1[0][0]            
__________________________________________________________________________________________________
dropout_3 (Dropout)             (None, 256, 256, 128 0           conv2d_3[0][0]                   
…
dropout_5 (Dropout)             (None, 128, 128, 256 0           conv2d_5[0][0]                   
__________________________________________________________________________________________________
conv2d_6 (Conv2D)               (None, 128, 128, 256 590080      dropout_5[0][0]                  
__________________________________________________________________________________________________
dropout_6 (Dropout)             (None, 128, 128, 256 0           conv2d_6[0][0]                   
__________________________________________________________________________________________________
max_pooling2d_3 (MaxPooling2D)  (None, 64, 64, 256)  0           dropout_6[0][0]                  
__________________________________________________________________________________________________
conv2d_7 (Conv2D)               (None, 64, 64, 512)  1180160     max_pooling2d_3[0][0]            
__________________________________________________________________________________________________
dropout_7 (Dropout)             (None, 64, 64, 512)  0           conv2d_7[0][0]                   
__________________________________________________________________________________________________
conv2d_8 (Conv2D)               (None, 64, 64, 512)  2359808     dropout_7[0][0]                  
__________________________________________________________________________________________________
dropout_8 (Dropout)             (None, 64, 64, 512)  0           conv2d_8[0][0]                   
__________________________________________________________________________________________________
max_pooling2d_4 (MaxPooling2D)  (None, 32, 32, 512)  0           dropout_8[0][0]                  
__________________________________________________________________________________________________
conv2d_9 (Conv2D)               (None, 32, 32, 512)  2359296     max_pooling2d_4[0][0]            
__________________________________________________________________________________________________
average_pooling2d_1 (AveragePoo (None, 16, 16, 512)  0           max_pooling2d_4[0][0]            
__________________________________________________________________________________________________
conv2d_10 (Conv2D)              (None, 16, 16, 512)  2359296     average_pooling2d_1[0][0]        
__________________________________________________________________________________________________
average_pooling2d_2 (AveragePoo (None, 16, 16, 512)  0           conv2d_9[0][0]                   
__________________________________________________________________________________________________
conv2d_12 (Conv2D)              (None, 16, 16, 768)  3538944     conv2d_10[0][0]                  
__________________________________________________________________________________________________
conv2d_13 (Conv2D)              (None, 16, 16, 768)  3538944     conv2d_10[0][0]                  
__________________________________________________________________________________________________
conv2d_14 (Conv2D)              (None, 16, 16, 768)  3538944     average_pooling2d_2[0][0]        
__________________________________________________________________________________________________
conv2d_11 (Conv2D)              (None, 32, 32, 768)  3538944     conv2d_9[0][0]                   
__________________________________________________________________________________________________
up_sampling2d_1 (UpSampling2D)  (None, 32, 32, 768)  0           conv2d_12[0][0]                  
__________________________________________________________________________________________________
add_2 (Add)                     (None, 16, 16, 768)  0           conv2d_13[0][0]                  
                                                                 conv2d_14[0][0]                  
__________________________________________________________________________________________________
add_1 (Add)                     (None, 32, 32, 768)  0           conv2d_11[0][0]                  
                                                                 up_sampling2d_1[0][0]            
__________________________________________________________________________________________________
conv2d_16 (Conv2D)              (None, 16, 16, 1024) 7077888     add_2[0][0]                      
__________________________________________________________________________________________________
conv2d_15 (Conv2D)              (None, 32, 32, 1024) 7077888     add_1[0][0]                      
__________________________________________________________________________________________________
up_sampling2d_2 (UpSampling2D)  (None, 32, 32, 1024) 0           conv2d_16[0][0]                  
__________________________________________________________________________________________________
add_3 (Add)                     (None, 32, 32, 1024) 0           conv2d_15[0][0]                  
                                                                 up_sampling2d_2[0][0]            
__________________________________________________________________________________________________
up_sampling2d_3 (UpSampling2D)  (None, 64, 64, 1024) 0           add_3[0][0]                      
__________________________________________________________________________________________________
conv2d_17 (Conv2D)              (None, 64, 64, 256)  131328      dropout_8[0][0]                  
__________________________________________________________________________________________________
conv2d_18 (Conv2D)              (None, 64, 64, 256)  262400      up_sampling2d_3[0][0]            
__________________________________________________________________________________________________
add_4 (Add)                     (None, 64, 64, 256)  0           conv2d_17[0][0]                  
                                                                 conv2d_18[0][0]                  
__________________________________________________________________________________________________
activation_1 (Activation)       (None, 64, 64, 256)  0           add_4[0][0]                      
__________________________________________________________________________________________________
conv2d_19 (Conv2D)              (None, 64, 64, 1)    257         activation_1[0][0]               
__________________________________________________________________________________________________
activation_2 (Activation)       (None, 64, 64, 1)    0           conv2d_19[0][0]                  
__________________________________________________________________________________________________
multiply_1 (Multiply)           (None, 64, 64, 512)  0           dropout_8[0][0]                  
                                                                 activation_2[0][0]               
__________________________________________________________________________________________________
lambda_1 (Lambda)               (None, 64, 64, 1536) 0           up_sampling2d_3[0][0]            
                                                                 multiply_1[0][0]                 
__________________________________________________________________________________________________
conv2d_20 (Conv2D)              (None, 64, 64, 512)  7078400     lambda_1[0][0]                   
__________________________________________________________________________________________________
dropout_9 (Dropout)             (None, 64, 64, 512)  0           conv2d_20[0][0]                  
__________________________________________________________________________________________________
conv2d_21 (Conv2D)              (None, 64, 64, 512)  2359808     dropout_9[0][0]                  
__________________________________________________________________________________________________
dropout_10 (Dropout)            (None, 64, 64, 512)  0           conv2d_21[0][0]                  
__________________________________________________________________________________________________
up_sampling2d_4 (UpSampling2D)  (None, 128, 128, 512 0           dropout_10[0][0]                 
__________________________________________________________________________________________________
conv2d_22 (Conv2D)              (None, 128, 128, 128 32896       dropout_6[0][0]                  
…
conv2d_26 (Conv2D)              (None, 128, 128, 256 590080      dropout_11[0][0]                 
__________________________________________________________________________________________________
dropout_12 (Dropout)            (None, 128, 128, 256 0           conv2d_26[0][0]                  
__________________________________________________________________________________________________
up_sampling2d_5 (UpSampling2D)  (None, 256, 256, 256 0           dropout_12[0][0]                 
__________________________________________________________________________________________________
conv2d_27 (Conv2D)              (None, 256, 256, 64) 8256        dropout_4[0][0]                  
__________________________________________________________________________________________________
conv2d_28 (Conv2D)              (None, 256, 256, 64) 16448       up_sampling2d_5[0][0]            
__________________________________________________________________________________________________
add_6 (Add)                     (None, 256, 256, 64) 0           conv2d_27[0][0]                  
                                                                 conv2d_28[0][0]                  
__________________________________________________________________________________________________
activation_5 (Activation)       (None, 256, 256, 64) 0           add_6[0][0]                      
__________________________________________________________________________________________________
conv2d_29 (Conv2D)              (None, 256, 256, 1)  65          activation_5[0][0]               
__________________________________________________________________________________________________
activation_6 (Activation)       (None, 256, 256, 1)  0           conv2d_29[0][0]                  
__________________________________________________________________________________________________
multiply_3 (Multiply)           (None, 256, 256, 128 0           dropout_4[0][0]                  
                                                                 activation_6[0][0]               
__________________________________________________________________________________________________
…
2020-06-07 18:52:06.949451: W tensorflow/core/common_runtime/base_collective_executor.cc:217] BaseCollectiveExecutor::StartAbort Resource exhausted: OOM when allocating tensor with shape[16,256,256,128] and type float on /job:localhost/replica:0/task:0/device:GPU:0 by allocator GPU_0_bfc
	 [[{{node dropout_3/cond/then/_22/dropout/random_uniform/RandomUniform}}]]
Hint: If you want to see a list of allocated tensors when OOM happens, add report_tensor_allocations_upon_oom to RunOptions for current allocation info.

Using TensorFlow backend.

__________________________________________________________________________________________________
conv2d_32 (Conv2D)              (None, 512, 512, 32) 2080        dropout_2[0][0]                  
__________________________________________________________________________________________________
conv2d_33 (Conv2D)              (None, 512, 512, 32) 4128        up_sampling2d_6[0][0]            
__________________________________________________________________________________________________
add_7 (Add)                     (None, 512, 512, 32) 0           conv2d_32[0][0]                  
                                                                 conv2d_33[0][0]                  
__________________________________________________________________________________________________
activation_7 (Activation)       (None, 512, 512, 32) 0           add_7[0][0]                      
__________________________________________________________________________________________________
conv2d_34 (Conv2D)              (None, 512, 512, 1)  33          activation_7[0][0]               
__________________________________________________________________________________________________
activation_8 (Activation)       (None, 512, 512, 1)  0           conv2d_34[0][0]                  
__________________________________________________________________________________________________
multiply_4 (Multiply)           (None, 512, 512, 64) 0           dropout_2[0][0]                  
                                                                 activation_8[0][0]               
__________________________________________________________________________________________________
lambda_4 (Lambda)               (None, 512, 512, 192 0           up_sampling2d_6[0][0]            
                                                                 multiply_4[0][0]                 
__________________________________________________________________________________________________
conv2d_35 (Conv2D)              (None, 512, 512, 64) 110656      lambda_4[0][0]                   
__________________________________________________________________________________________________
dropout_15 (Dropout)            (None, 512, 512, 64) 0           conv2d_35[0][0]                  
__________________________________________________________________________________________________
conv2d_36 (Conv2D)              (None, 512, 512, 64) 36928       dropout_15[0][0]                 
__________________________________________________________________________________________________
dropout_16 (Dropout)            (None, 512, 512, 64) 0           conv2d_36[0][0]                  
__________________________________________________________________________________________________
conv2d_37 (Conv2D)              (None, 512, 512, 1)  65          dropout_16[0][0]                 
==================================================================================================
Total params: 50,773,797
Trainable params: 50,773,797
Non-trainable params: 0
__________________________________________________________________________________________________
Epoch 1/512
Found 682 images belonging to 1 classes.
Found 682 images belonging to 1 classes.
…
